…
2025-12-12 13:02:57,832 - INFO - data_processing_01 - Data cleaning is ready. Original size of data: 1667, Size of data after cleaning: 1567
2025-12-12 13:03:00,162 - INFO - train_02 - ------------------------------
2025-12-12 13:03:00,163 - INFO - train_02 - The hyperparameters are the following:
2025-12-12 13:03:00,163 - INFO - train_02 - Number of epochs: 7
2025-12-12 13:03:00,163 - INFO - train_02 - Batch size: 32
2025-12-12 13:03:00,164 - INFO - train_02 - Learning rate: 2e-05
2025-12-12 13:03:18,143 - INFO - train_02 - Model:
2025-12-12 13:03:18,144 - INFO - train_02 - LegalBERT(
  (bert): BertModel(
    (embeddings): BertEmbeddings(
      (word_embeddings): Embedding(32001, 768, padding_idx=0)
      (position_embeddings): Embedding(512, 768)
      (token_type_embeddings): Embedding(2, 768)
      (LayerNorm): LayerNorm((768,), eps=1e-12, elementwise_affine=True)
      (dropout): Dropout(p=0.1, inplace=False)
    )
    (encoder): BertEncoder(
      (layer): ModuleList(
        (0-11): 12 x BertLayer(
          (attention): BertAttention(
            (self): BertSelfAttention(
              (query): Linear(in_features=768, out_features=768, bias=True)
              (key): Linear(in_features=768, out_features=768, bias=True)
              (value): Linear(in_features=768, out_features=768, bias=True)
              (dropout): Dropout(p=0.1, inplace=False)
            )
            (output): BertSelfOutput(
              (dense): Linear(in_features=768, out_features=768, bias=True)
              (LayerNorm): LayerNorm((768,), eps=1e-12, elementwise_affine=True)
              (dropout): Dropout(p=0.1, inplace=False)
            )
          )
          (intermediate): BertIntermediate(
            (dense): Linear(in_features=768, out_features=3072, bias=True)
            (intermediate_act_fn): GELUActivation()
          )
          (output): BertOutput(
            (dense): Linear(in_features=3072, out_features=768, bias=True)
            (LayerNorm): LayerNorm((768,), eps=1e-12, elementwise_affine=True)
            (dropout): Dropout(p=0.1, inplace=False)
          )
        )
      )
    )
    (pooler): BertPooler(
      (dense): Linear(in_features=768, out_features=768, bias=True)
      (activation): Tanh()
    )
  )
  (classifier): Sequential(
    (0): Linear(in_features=768, out_features=256, bias=True)
    (1): ReLU()
    (2): Dropout(p=0.1, inplace=False)
    (3): Linear(in_features=256, out_features=5, bias=True)
  )
)
2025-12-12 13:03:18,147 - INFO - train_02 - Number of parameters: 110,816,261
2025-12-12 13:03:18,147 - INFO - train_02 - Number of trainable parameters: 36,228,101
2025-12-12 13:03:18,147 - INFO - train_02 - Number of not trainable parameters: 74,588,160
2025-12-12 13:03:18,148 - INFO - train_02 - ------------------------------
2025-12-12 13:03:18,323 - INFO - train_02 -  Class weights:tensor([4.0593, 1.7677, 0.9249, 0.6227, 0.6663])
…
